…
h 2 targets.
loading data
X_train shape: (25642, 1800, 7), y_train shape: (25642,)
X_test shape: (6494, 1800, 7), y_test shape: (6494,)
starting hyperparameter search
Fitting 1 folds for each of 1 candidates, totalling 1 fits
Model: "model"
_________________________________________________________________
Layer (type)                 Output Shape              Param #   
=================================================================
input_1 (InputLayer)         [(None, 1800, 7)]         0         
_________________________________________________________________
conv1d (Conv1D)              (None, 900, 64)           1408      
_________________________________________________________________
batch_normalization (BatchNo (None, 900, 64)           256       
_________________________________________________________________
re_lu (ReLU)                 (None, 900, 64)           0         
_________________________________________________________________
conv1d_1 (Conv1D)            (None, 450, 64)           12352     
_________________________________________________________________
batch_normalization_1 (Batch (None, 450, 64)           256       
_________________________________________________________________
re_lu_1 (ReLU)               (None, 450, 64)           0         
_________________________________________________________________
global_average_pooling1d (Gl (None, 64)                0         
_________________________________________________________________
dense (Dense)                (None, 32)                2080      
_________________________________________________________________
dropout (Dropout)            (None, 32)                0         
_________________________________________________________________
dense_1 (Dense)              (None, 1)                 33        
=================================================================
Total params: 16,385
Trainable params: 16,129
Non-trainable params: 256
_________________________________________________________________
None
finished finding the best hyperparameters
start training best model on complete training and validation data
Model: "model_1"
_________________________________________________________________
Layer (type)                 Output Shape              Param #   
=================================================================
input_2 (InputLayer)         [(None, 1800, 7)]         0         
_________________________________________________________________
conv1d_2 (Conv1D)            (None, 900, 64)           1408      
_________________________________________________________________
batch_normalization_2 (Batch (None, 900, 64)           256       
_________________________________________________________________
re_lu_2 (ReLU)               (None, 900, 64)           0         
_________________________________________________________________
conv1d_3 (Conv1D)            (None, 450, 64)           12352     
_________________________________________________________________
batch_normalization_3 (Batch (None, 450, 64)           256       
_________________________________________________________________
re_lu_3 (ReLU)               (None, 450, 64)           0         
_________________________________________________________________
global_average_pooling1d_1 ( (None, 64)                0         
_________________________________________________________________
dense_2 (Dense)              (None, 32)                2080      
_________________________________________________________________
dropout_1 (Dropout)          (None, 32)                0         
_________________________________________________________________
dense_3 (Dense)              (None, 1)                 33        
=================================================================
Total params: 16,385
Trainable params: 16,129
Non-trainable params: 256
_________________________________________________________________
None
log scores and training and test set
  1/802 [..............................] - ETA: 1:12 - loss: 8.7326e-04 - accuracy: 1.0000
…
