…
h 2 targets.
loading data
X_train shape: (26642, 1800, 7), y_train shape: (26642,)
X_test shape: (6494, 1800, 7), y_test shape: (6494,)
starting hyperparameter search
Fitting 1 folds for each of 1 candidates, totalling 1 fits
Model: "model"
_________________________________________________________________
Layer (type)                 Output Shape              Param #   
=================================================================
input_1 (InputLayer)         [(None, 1800, 7)]         0         
_________________________________________________________________
conv1d (Conv1D)              (None, 600, 44)           1584      
_________________________________________________________________
batch_normalization (BatchNo (None, 600, 44)           176       
_________________________________________________________________
re_lu (ReLU)                 (None, 600, 44)           0         
_________________________________________________________________
conv1d_1 (Conv1D)            (None, 200, 44)           9724      
_________________________________________________________________
batch_normalization_1 (Batch (None, 200, 44)           176       
_________________________________________________________________
re_lu_1 (ReLU)               (None, 200, 44)           0         
_________________________________________________________________
global_max_pooling1d (Global (None, 44)                0         
_________________________________________________________________
dense (Dense)                (None, 32)                1440      
_________________________________________________________________
dropout (Dropout)            (None, 32)                0         
_________________________________________________________________
dense_1 (Dense)              (None, 1)                 33        
=================================================================
Total params: 13,133
Trainable params: 12,957
Non-trainable params: 176
_________________________________________________________________
None
finished finding the best hyperparameters
start training best model on complete training and validation data
Model: "model_1"
_________________________________________________________________
Layer (type)                 Output Shape              Param #   
=================================================================
input_2 (InputLayer)         [(None, 1800, 7)]         0         
_________________________________________________________________
conv1d_2 (Conv1D)            (None, 600, 44)           1584      
_________________________________________________________________
batch_normalization_2 (Batch (None, 600, 44)           176       
_________________________________________________________________
re_lu_2 (ReLU)               (None, 600, 44)           0         
_________________________________________________________________
conv1d_3 (Conv1D)            (None, 200, 44)           9724      
_________________________________________________________________
batch_normalization_3 (Batch (None, 200, 44)           176       
_________________________________________________________________
re_lu_3 (ReLU)               (None, 200, 44)           0         
_________________________________________________________________
global_max_pooling1d_1 (Glob (None, 44)                0         
_________________________________________________________________
dense_2 (Dense)              (None, 32)                1440      
_________________________________________________________________
dropout_1 (Dropout)          (None, 32)                0         
_________________________________________________________________
dense_3 (Dense)              (None, 1)                 33        
=================================================================
Total params: 13,133
Trainable params: 12,957
Non-trainable params: 176
_________________________________________________________________
None
log scores and training and test set
  1/833 [..............................] - ETA: 1:21 - loss: 0.0348 - accuracy: 1.0000
…
