…
h 2 targets.
loading data
X_train shape: (25642, 1800, 7), y_train shape: (25642,)
X_test shape: (6494, 1800, 7), y_test shape: (6494,)
starting hyperparameter search
Fitting 1 folds for each of 2 candidates, totalling 2 fits
Model: "model"
_________________________________________________________________
Layer (type)                 Output Shape              Param #   
=================================================================
input_1 (InputLayer)         [(None, 1800, 7)]         0         
_________________________________________________________________
conv1d (Conv1D)              (None, 360, 63)           2268      
_________________________________________________________________
batch_normalization (BatchNo (None, 360, 63)           252       
_________________________________________________________________
re_lu (ReLU)                 (None, 360, 63)           0         
_________________________________________________________________
conv1d_1 (Conv1D)            (None, 72, 63)            19908     
_________________________________________________________________
batch_normalization_1 (Batch (None, 72, 63)            252       
_________________________________________________________________
re_lu_1 (ReLU)               (None, 72, 63)            0         
_________________________________________________________________
global_max_pooling1d (Global (None, 63)                0         
_________________________________________________________________
dense (Dense)                (None, 32)                2048      
_________________________________________________________________
dropout (Dropout)            (None, 32)                0         
_________________________________________________________________
dense_1 (Dense)              (None, 1)                 33        
=================================================================
Total params: 24,761
Trainable params: 24,509
Non-trainable params: 252
_________________________________________________________________
None
Model: "model_1"
_________________________________________________________________
Layer (type)                 Output Shape              Param #   
=================================================================
input_2 (InputLayer)         [(None, 1800, 7)]         0         
_________________________________________________________________
conv1d_2 (Conv1D)            (None, 600, 34)           748       
_________________________________________________________________
batch_normalization_2 (Batch (None, 600, 34)           136       
_________________________________________________________________
re_lu_2 (ReLU)               (None, 600, 34)           0         
_________________________________________________________________
global_max_pooling1d_1 (Glob (None, 34)                0         
_________________________________________________________________
dense_2 (Dense)              (None, 32)                1120      
_________________________________________________________________
dropout_1 (Dropout)          (None, 32)                0         
_________________________________________________________________
dense_3 (Dense)              (None, 1)                 33        
=================================================================
Total params: 2,037
Trainable params: 1,969
Non-trainable params: 68
_________________________________________________________________
None
finished finding the best hyperparameters
start training best model on complete training and validation data
Model: "model_2"
_________________________________________________________________
Layer (type)                 Output Shape              Param #   
=================================================================
input_3 (InputLayer)         [(None, 1800, 7)]         0         
_________________________________________________________________
conv1d_3 (Conv1D)            (None, 360, 63)           2268      
_________________________________________________________________
batch_normalization_3 (Batch (None, 360, 63)           252       
_________________________________________________________________
re_lu_3 (ReLU)               (None, 360, 63)           0         
_________________________________________________________________
conv1d_4 (Conv1D)            (None, 72, 63)            19908     
_________________________________________________________________
batch_normalization_4 (Batch (None, 72, 63)            252       
_________________________________________________________________
re_lu_4 (ReLU)               (None, 72, 63)            0         
_________________________________________________________________
global_max_pooling1d_2 (Glob (None, 63)                0         
_________________________________________________________________
dense_4 (Dense)              (None, 32)                2048      
_________________________________________________________________
dropout_2 (Dropout)          (None, 32)                0         
_________________________________________________________________
dense_5 (Dense)              (None, 1)                 33        
=================================================================
Total params: 24,761
Trainable params: 24,509
Non-trainable params: 252
_________________________________________________________________
None
log scores and training and test set
  1/802 [..............................] - ETA: 1:10 - loss: 0.0913 - accuracy: 0.9688
…
